…
    "        CATEGORICAL_COLUMNS[0]: EMBEDDING_TABLE_SHAPES[CATEGORICAL_COLUMNS[0]],\n",
    "        CATEGORICAL_COLUMNS[1]: EMBEDDING_TABLE_SHAPES[CATEGORICAL_COLUMNS[1]],\n",
    "    },\n",
    "    {CATEGORICAL_MH_COLUMNS[0]: MH_EMBEDDING_TABLE_SHAPES[CATEGORICAL_MH_COLUMNS[0]]},\n",
    ")\n",
    "EMBEDDING_TABLE_SHAPES_TUPLE"
   ]
  },
  {
   "cell_type": "code",
   "execution_count": 16,
   "metadata": {},
   "outputs": [
    {
     "data": {
      "text/plain": [
       "Model(\n",
       "  (initial_cat_layer): ConcatenatedEmbeddings(\n",
       "    (embedding_layers): ModuleList(\n",
       "      (0): Embedding(56586, 512)\n",
       "      (1): Embedding(162542, 512)\n",
       "    )\n",
       "    (dropout): Dropout(p=0.0, inplace=False)\n",
       "  )\n",
       "  (mh_cat_layer): MultiHotEmbeddings(\n",
       "    (embedding_layers): ModuleList(\n",
       "      (0): EmbeddingBag(21, 16, mode=sum)\n",
       "    )\n",
       "    (dropout): Dropout(p=0.0, inplace=False)\n",
       "  )\n",
       "  (initial_cont_layer): BatchNorm1d(0, eps=1e-05, momentum=0.1, affine=True, track_running_stats=True)\n",
       "  (layers): ModuleList(\n",
       "    (0): Sequential(\n",
       "      (0): Linear(in_features=1040, out_features=128, bias=True)\n",
       "      (1): ReLU(inplace=True)\n",
       "      (2): BatchNorm1d(128, eps=1e-05, momentum=0.1, affine=True, track_running_stats=True)\n",
       "      (3): Dropout(p=0.0, inplace=False)\n",
       "    )\n",
       "    (1): Sequential(\n",
       "      (0): Linear(in_features=128, out_features=128, bias=True)\n",
       "      (1): ReLU(inplace=True)\n",
       "      (2): BatchNorm1d(128, eps=1e-05, momentum=0.1, affine=True, track_running_stats=True)\n",
       "      (3): Dropout(p=0.0, inplace=False)\n",
       "    )\n",
       "    (2): Sequential(\n",
       "      (0): Linear(in_features=128, out_features=128, bias=True)\n",
       "      (1): ReLU(inplace=True)\n",
       "      (2): BatchNorm1d(128, eps=1e-05, momentum=0.1, affine=True, track_running_stats=True)\n",
       "      (3): Dropout(p=0.0, inplace=False)\n",
       "    )\n",
       "  )\n",
       "  (output_layer): Linear(in_features=128, out_features=1, bias=True)\n",
       ")"
      ]
     },
     "execution_count": 16,
     "metadata": {},
     "output_type": "execute_result"
    }
   ],
   "source": [
    "model = Model(\n",
    "    embedding_table_shapes=EMBEDDING_TABLE_SHAPES_TUPLE,\n",
    "    num_continuous=0,\n",
    "    emb_dropout=0.0,\n",
    "    layer_hidden_dims=[128, 128, 128],\n",
    "    layer_dropout_rates=[0.0, 0.0, 0.0],\n",
…
